Camera/Moudel/yolo3_iou_smartcar_final_with_post_processing.tflite (tflite, 104992 bytes, 27 tensors)

model/conv2d/Conv2D i1 [32, 5, 5, 3]
000000 df 19 e8 ba 81 d2 a8 ee f7 c6 c4 dc 09 f6 0c af
       -33 25 -24 -70 -127 -46 -88 -18 -9 -58 -60 -36 9 -10 12 -81
000010 b4 c8 e0 9a bb d2 bc bb 17 03 fa f0 f4 37 f5 cb
       -76 -56 -32 -102 -69 -46 -68 -69 23 3 -6 -16 -12 55 -11 -53
000020 f0 d1 bd 12 e6 e3 98 bc f2 15 14 4b de 02 de d8
       -16 -47 -67 18 -26 -29 -104 -68 -14 21 20 75 -34 2 -34 -40
000030 0c 15 0f c2 d8 e3 cb e8 43 64 3a 37 f8 e2 cb cc
       12 21 15 -62 -40 -29 -53 -24 67 100 58 55 -8 -30 -53 -52
000040 f2 10 01 c1 f2 0e 38 2a ee 61 23 58 31 3f 00 92
       -14 16 1 -63 -14 14 56 42 -18 97 35 88 49 63 0 -110
000050 a2 18 1b 39 54 21 24 31 c3 d6 4a 3b 37 bf cc da
       -94 24 27 57 84 33 36 49 -61 -42 74 59 55 -65 -52 -38
000060 1a 18 02 d5 e9 f8 cc cc 0d c3 41 e1 f8 96 31 de
       26 24 2 -43 -23 -8 -52 -52 13 -61 65 -31 -8 -106 49 -34
000070 08 ea f2 ff 24 d0 51 45 28 df 35 0d f9 43 dc 2f
       8 -22 -14 -1 36 -48 81 69 40 -33 53 13 -7 67 -36 47
000080 eb be 43 db b7 23 17 28 c9 04 05 0f e1 57 64 7f
       -21 -66 67 -37 -73 35 23 40 -55 4 5 15 -31 87 100 127
000090 d4 e8 5a d5 39 60 c4 d3 8f 03 cf af ed a7 bb 8e
       -44 -24 90 -43 57 96 -60 -45 -113 3 -49 -81 -19 -89 -69 -114
0000a0 8b e5 d2 13 ec eb 1a 50 3b 6a 27 17 28 e5 c2 17
       -117 -27 -46 19 -20 -21 26 80 59 106 39 23 40 -27 -62 23
0000b0 0a b2 0c e0 ca ea 1c c6 18 0b ea 09 05 16 03 d9
       10 -78 12 -32 -54 -22 28 -58 24 11 -22 9 5 22 3 -39
0000c0 f8 73 3e b5 fb 2d 9b 3a f6 13 3d 30 de bd cd c7
       -8 115 62 -75 -5 45 -101 58 -10 19 61 48 -34 -67 -51 -57
0000d0 02 3f fe fd 7f d5 29 58 a9 97 ae b8 9f dc aa ea
       2 63 -2 -3 127 -43 41 88 -87 -105 -82 -72 -97 -36 -86 -22
0000e0 31 d5 20 cc 16 d7 39 19 ef e6 12 1d 11 ed fe e8
       49 -43 32 -52 22 -41 57 25 -17 -26 18 29 17 -19 -2 -24
0000f0 49 e2 2a c2 c0 4c fc e9 3a 18 12 ec 06 e3 cc 06
       73 -30 42 -62 -64 76 -4 -23 58 24 18 -20 6 -29 -52 6

model/conv2d_1/Conv2D i1 [32, 1, 1, 32]
000000 62 49 d2 b2 72 81 b1 db d4 26 87 fa 39 35 3d a4
       98 73 -46 -78 114 -127 -79 -37 -44 38 -121 -6 57 53 61 -92
000010 fd 90 11 e9 eb 9b bb 4b 2b ef 8d c1 4e 08 23 98
       -3 -112 17 -23 -21 -101 -69 75 43 -17 -115 -63 78 8 35 -104
000020 29 74 6a 96 92 64 0a ad ef da 62 e9 27 27 1d 1f
       41 116 106 -106 -110 100 10 -83 -17 -38 98 -23 39 39 29 31
000030 c7 26 1d 45 f7 f4 d8 47 41 a4 67 3b e5 fd 81 e3
       -57 38 29 69 -9 -12 -40 71 65 -92 103 59 -27 -3 -127 -29
000040 3a cd 31 19 fa 52 97 2b bc f8 10 7f ff 47 3c c7
       58 -51 49 25 -6 82 -105 43 -68 -8 16 127 -1 71 60 -57
000050 e5 6f 2e f9 bd 1f b5 48 f1 de 32 c5 5a bd fd 61
       -27 111 46 -7 -67 31 -75 72 -15 -34 50 -59 90 -67 -3 97
000060 2b 81 1d 2d ab a8 b7 d5 b1 71 25 67 c0 0a d3 d0
       43 -127 29 45 -85 -88 -73 -43 -79 113 37 103 -64 10 -45 -48
000070 2b 33 ad cb eb 6c ed 46 01 57 11 51 12 e7 7c 96
       43 51 -83 -53 -21 108 -19 70 1 87 17 81 18 -25 124 -106
000080 0a 32 f5 f2 3e ce ea 3b 02 4c f5 43 de 45 89 bd
       10 50 -11 -14 62 -50 -22 59 2 76 -11 67 -34 69 -119 -67
000090 2d cd 0c 7e 20 b3 2e e2 7f 04 42 43 db 42 f4 af
       45 -51 12 126 32 -77 46 -30 127 4 66 67 -37 66 -12 -81
0000a0 68 99 44 a8 86 b3 85 a7 7e 0d 78 cb 71 61 55 14
       104 -103 68 -88 -122 -77 -123 -89 126 13 120 -53 113 97 85 20
0000b0 16 65 53 c9 43 7f fc ca 48 87 da 98 b0 e0 6b ad
       22 101 83 -55 67 127 -4 -54 72 -121 -38 -104 -80 -32 107 -83
0000c0 50 43 ed 00 f4 40 a5 58 25 ed f3 e5 91 f1 50 8f
       80 67 -19 0 -12 64 -91 88 37 -19 -13 -27 -111 -15 80 -113
0000d0 7f 31 bc 60 14 63 fb 6f 9a aa 07 c8 58 1a c1 fa
       127 49 -68 96 20 99 -5 111 -102 -86 7 -56 88 26 -63 -6
0000e0 de 67 12 af 14 85 c1 4e e7 1c f8 04 b7 b4 ac 4f
       -34 103 18 -81 20 -123 -63 78 -25 28 -8 4 -73 -76 -84 79
0000f0 4e d3 ed b0 f6 e6 81 43 60 f8 3d 3d 2b d1 46 2e
       78 -45 -19 -80 -10 -26 -127 67 96 -8 61 61 43 -47 70 46

model/batch_normalization_2/FusedBatchNormV3;model/depthwise_conv2d/depthwise;model/depthwise_conv2d/BiasAdd/ReadVariableOp;model/depthwise_conv2d/BiasAdd;model/conv2d_14/Conv2D i1 [1, 3, 3, 32]
000000 b7 35 15 eb 42 58 4a df 81 16 4b bd 57 81 a7 24
       -73 53 21 -21 66 88 74 -33 -127 22 75 -67 87 -127 -89 36
000010 7f 19 19 7f 79 75 d6 ce 41 26 27 1d 7f 7f 47 a9
       127 25 25 127 121 117 -42 -50 65 38 39 29 127 127 71 -87
000020 e8 45 7f e7 46 b8 e3 d1 e2 f7 34 6b 1d 04 cb b6
       -24 69 127 -25 70 -72 -29 -47 -30 -9 52 107 29 4 -53 -74
000030 ad fd e6 f8 3d e0 39 3d c4 79 d9 7f ac b5 25 30
       -83 -3 -26 -8 61 -32 57 61 -60 121 -39 127 -84 -75 37 48
000040 ef 7f 75 d4 0f 09 de f2 ce e4 f0 3b 20 40 38 89
       -17 127 117 -44 15 9 -34 -14 -50 -28 -16 59 32 64 56 -119
000050 82 5d 81 d7 7f 81 3c 72 1e 4a 0f d4 09 05 ef 28
       -126 93 -127 -41 127 -127 60 114 30 74 15 -44 9 5 -17 40
000060 17 d5 54 81 dd ec 18 4f 0b 6b c6 f2 46 2c 2c 41
       23 -43 84 -127 -35 -20 24 79 11 107 -58 -14 70 44 44 65
000070 37 12 c2 42 39 c5 34 81 81 7f d6 2e 22 b4 7f e9
       55 18 -62 66 57 -59 52 -127 -127 127 -42 46 34 -76 127 -23
000080 81 c5 fc b0 cc c0 43 cc 14 58 10 ec 1e be 0d 96
       -127 -59 -4 -80 -52 -64 67 -52 20 88 16 -20 30 -66 13 -106
000090 e5 1f d9 76 05 ba 01 4f 28 01 81 d6 5a 9a 01 c5
       -27 31 -39 118 5 -70 1 79 40 1 -127 -42 90 -102 1 -59
0000a0 d9 92 59 1a de f9 7f f8 c1 d4 7f d7 df 2b 83 81
       -39 -110 89 26 -34 -7 127 -8 -63 -44 127 -41 -33 43 -125 -127
0000b0 73 1d 11 45 6b 9d ff ae 9e a5 b9 8e 9a 0c 02 1a
       115 29 17 69 107 -99 -1 -82 -98 -91 -71 -114 -102 12 2 26
0000c0 af 51 4a c6 2f bd 15 7f d9 7f 3d 33 bd e8 e9 c5
       -81 81 74 -58 47 -67 21 127 -39 127 61 51 -67 -24 -23 -59
0000d0 98 dc cf d1 25 c9 7f a9 ab ea d8 36 34 43 52 aa
       -104 -36 -49 -47 37 -55 127 -87 -85 -22 -40 54 52 67 82 -86
0000e0 5b d8 fe ed 81 81 ed 16 bd c4 e6 7f 81 48 e1 f6
       91 -40 -2 -19 -127 -127 -19 22 -67 -60 -26 127 -127 72 -31 -10
0000f0 f6 81 38 0c 44 d1 21 de bc 0c a6 b5 a5 53 2b e5
       -10 -127 56 12 68 -47 33 -34 -68 12 -90 -75 -91 83 43 -27

model/conv2d_2/Conv2D i1 [16, 1, 1, 32]
000000 2c 95 4c 18 e4 42 7f 2f fe 59 fe 5d d2 5a 16 0a
       44 -107 76 24 -28 66 127 47 -2 89 -2 93 -46 90 22 10
000010 ef 57 d7 61 b8 84 25 3b 0a 04 39 27 31 2c d8 30
       -17 87 -41 97 -72 -124 37 59 10 4 57 39 49 44 -40 48
000020 52 ae 37 c1 cc ab 08 9c f4 81 b7 ad 11 af 4f 38
       82 -82 55 -63 -52 -85 8 -100 -12 -127 -73 -83 17 -81 79 56
000030 f6 b4 3b 08 2d d2 ec 6f 55 c7 10 15 a7 d7 32 be
       -10 -76 59 8 45 -46 -20 111 85 -57 16 21 -89 -41 50 -66
000040 31 dd fe b8 93 12 fa ee 3c ea 2d fc 23 1d a9 d6
       49 -35 -2 -72 -109 18 -6 -18 60 -22 45 -4 35 29 -87 -42
000050 14 5b 46 52 f0 f7 c4 aa 5d b2 7f c2 a3 41 ab 6b
       20 91 70 82 -16 -9 -60 -86 93 -78 127 -62 -93 65 -85 107
000060 d5 4b bb aa 72 81 d4 23 d1 ac b7 4d 60 ef 96 35
       -43 75 -69 -86 114 -127 -44 35 -47 -84 -73 77 96 -17 -106 53
000070 c4 10 8d 8b ab 56 4f fd 60 2a 04 61 ee 15 de b9
       -60 16 -115 -117 -85 86 79 -3 96 42 4 97 -18 21 -34 -71
000080 1f 4f 4d 44 5f 27 31 1e 03 81 9c b9 08 e3 dd fc
       31 79 77 68 95 39 49 30 3 -127 -100 -71 8 -29 -35 -4
000090 6f 07 32 6c c2 25 4e 2e 72 ee 37 2a b5 13 1b 01
       111 7 50 108 -62 37 78 46 114 -18 55 42 -75 19 27 1
0000a0 7f 99 73 af ce df 52 40 e2 60 f2 a5 20 5b 60 52
       127 -103 115 -81 -50 -33 82 64 -30 96 -14 -91 32 91 96 82
0000b0 58 d3 c5 5b d7 b7 9d b8 41 74 dc 43 35 10 38 c1
       88 -45 -59 91 -41 -73 -99 -72 65 116 -36 67 53 16 56 -63
0000c0 ec 1f 50 01 e4 a7 20 df a8 18 1d a4 37 68 6d 81
       -20 31 80 1 -28 -89 32 -33 -88 24 29 -92 55 104 109 -127
0000d0 e4 0c 0e e0 07 77 29 b3 47 e7 45 ac e0 d7 69 2f
       -28 12 14 -32 7 119 41 -77 71 -25 69 -84 -32 -41 105 47
0000e0 f2 56 2d b5 5b b3 84 e6 d9 53 04 e7 f9 31 3d f2
       -14 86 45 -75 91 -77 -124 -26 -39 83 4 -25 -7 49 61 -14
0000f0 81 c2 76 21 47 19 01 03 2b 51 0a 4d 06 eb fa 18
       -127 -62 118 33 71 25 1 3 43 81 10 77 6 -21 -6 24

model/conv2d_3/Conv2D i1 [32, 1, 1, 16]
000000 52 1f 50 13 03 4c a7 d9 e6 dc b5 e0 d2 81 15 f9
       82 31 80 19 3 76 -89 -39 -26 -36 -75 -32 -46 -127 21 -7
000010 6a 10 10 57 30 c6 69 b2 df 83 97 d5 06 b2 81 59
       106 16 16 87 48 -58 105 -78 -33 -125 -105 -43 6 -78 -127 89
000020 83 cf 07 d1 7f 5f f5 eb 64 4a e1 3a 93 38 54 0e
       -125 -49 7 -47 127 95 -11 -21 100 74 -31 58 -109 56 84 14
000030 5c 36 e9 45 dc 7f 36 ab 26 f8 9a 26 99 34 1d b9
       92 54 -23 69 -36 127 54 -85 38 -8 -102 38 -103 52 29 -71
000040 13 02 b1 1d c8 b9 99 2d a0 7f e5 0f 83 86 eb e4
       19 2 -79 29 -56 -71 -103 45 -96 127 -27 15 -125 -122 -21 -28
000050 ea 7f d9 00 57 0f 30 98 fc c5 01 0c 57 ae d2 02
       -22 127 -39 0 87 15 48 -104 -4 -59 1 12 87 -82 -46 2
000060 eb 1b 5a aa ac cf 02 81 35 26 f7 af 88 02 ad 57
       -21 27 90 -86 -84 -49 2 -127 53 38 -9 -81 -120 2 -83 87
000070 42 c5 e2 cf 70 dc 6d 1b 2d df 34 0c 7f ed c4 c0
       66 -59 -30 -49 112 -36 109 27 45 -33 52 12 127 -19 -60 -64
000080 a6 aa bf f7 a6 89 a2 1c a7 de bb e4 14 81 28 57
       -90 -86 -65 -9 -90 -119 -94 28 -89 -34 -69 -28 20 -127 40 87
000090 a6 0d bc 2c fb a3 20 bb c3 fe e8 c8 7f c8 e9 fc
       -90 13 -68 44 -5 -93 32 -69 -61 -2 -24 -56 127 -56 -23 -4
0000a0 27 45 56 a7 41 5a fa c9 7f db 5b 3e b5 75 37 4d
       39 69 86 -89 65 90 -6 -55 127 -37 91 62 -75 117 55 77
0000b0 08 3f d0 bc 37 03 9f 19 21 fa b6 7f b9 16 05 d7
       8 63 -48 -68 55 3 -97 25 33 -6 -74 127 -71 22 5 -41
0000c0 b4 46 bb ed a9 c8 3d 3c d5 7f ac ab 3c 0b c1 f5
       -76 70 -69 -19 -87 -56 61 60 -43 127 -84 -85 60 11 -63 -11
0000d0 16 0c fe d2 b7 f9 d7 63 a5 57 7f 33 ea dd 55 88
       22 12 -2 -46 -73 -7 -41 99 -91 87 127 51 -22 -35 85 -120
0000e0 e6 6a 12 28 00 a3 8c ec 18 1c 58 dc 76 81 40 9a
       -26 106 18 40 0 -93 -116 -20 24 28 88 -36 118 -127 64 -102
0000f0 12 7f 6a 92 21 fc 33 23 d2 e7 9b 51 e6 bd f7 c5
       18 127 106 -110 33 -4 51 35 -46 -25 -101 81 -26 -67 -9 -59

model/batch_normalization_5/FusedBatchNormV3;model/depthwise_conv2d_1/depthwise;model/depthwise_conv2d_1/BiasAdd/ReadVariableOp;model/depthwise_conv2d_1/BiasAdd;model/conv2d_14/Conv2D i1 [1, 3, 3, 32]
000000 73 0f 5a 31 e7 34 e7 db 19 45 c4 f6 7f 10 77 1b
       115 15 90 49 -25 52 -25 -37 25 69 -60 -10 127 16 119 27
000010 21 fb b4 a3 48 17 f5 d3 f2 d6 25 7f e2 52 22 72
       33 -5 -76 -93 72 23 -11 -45 -14 -42 37 127 -30 82 34 114
000020 f9 3d 2b 9e 5b 67 81 3f 81 7f bf 2f 19 45 01 41
       -7 61 43 -98 91 103 -127 63 -127 127 -65 47 25 69 1 65
000030 9a a9 a1 7f eb 28 2f dc e0 e9 61 73 81 23 f4 a7
       -102 -87 -95 127 -21 40 47 -36 -32 -23 97 115 -127 35 -12 -89
000040 5f 0f 1a ea 0f 2e a5 4a 35 33 0a 09 26 81 a5 3b
       95 15 26 -22 15 46 -91 74 53 51 10 9 38 -127 -91 59
000050 34 2a a3 3d 76 84 e4 fd 1f d5 62 4e 2b 23 92 36
       52 42 -93 61 118 -124 -28 -3 31 -43 98 78 43 35 -110 54
000060 20 76 a8 d9 48 c0 1f 4e 29 14 ef 43 66 68 2e 38
       32 118 -88 -39 72 -64 31 78 41 20 -17 67 102 104 46 56
000070 eb 19 ee 51 b8 a2 be fa 81 7f 2d 96 a4 30 82 81
       -21 25 -18 81 -72 -94 -66 -6 -127 127 45 -106 -92 48 -126 -127
000080 5f e9 6c 46 7f 6c fa 4d 9e 51 f8 14 75 d2 55 99
       95 -23 108 70 127 108 -6 77 -98 81 -8 20 117 -46 85 -103
000090 43 27 01 44 df 81 af fe c0 62 a9 18 ab 45 68 de
       67 39 1 68 -33 -127 -81 -2 -64 98 -87 24 -85 69 104 -34
0000a0 cd 5f fb 59 7a 7f cc 7f 2e 49 4b 81 3d 98 d9 4d
       -51 95 -5 89 122 127 -52 127 46 73 75 -127 61 -104 -39 77
0000b0 d6 f4 10 e0 7f 14 31 81 28 46 81 a0 1c e9 56 e1
       -42 -12 16 -32 127 20 49 -127 40 70 -127 -96 28 -23 86 -31
0000c0 e3 7f 7f a3 7e 2f 4c 1e e4 0e ff 21 e6 02 dc 87
       -29 127 127 -93 126 47 76 30 -28 14 -1 33 -26 2 -36 -121
0000d0 b6 c1 08 48 20 d3 1a b5 3f d4 ea c9 ed 7f 03 f9
       -74 -63 8 72 32 -45 26 -75 63 -44 -22 -55 -19 127 3 -7
0000e0 81 d0 bc 7f b0 0e ec c2 9a e7 43 22 a2 34 7f 25
       -127 -48 -68 127 -80 14 -20 -62 -102 -25 67 34 -94 52 127 37
0000f0 81 81 81 28 cc 6b 46 c2 3c 50 54 05 31 49 3c 2a
       -127 -127 -127 40 -52 107 70 -62 60 80 84 5 49 73 60 42

model/conv2d_4/Conv2D i1 [24, 1, 1, 32]
000000 3a 37 be cb d9 01 ae 08 c3 ee 06 2f b1 d2 ff 67
       58 55 -66 -53 -39 1 -82 8 -61 -18 6 47 -79 -46 -1 103
000010 44 22 ca 00 de a7 8e 44 97 6e 7f 92 27 b8 1c 72
       68 34 -54 0 -34 -89 -114 68 -105 110 127 -110 39 -72 28 114
000020 6b 5e 58 2d ef 1a d3 5a b0 12 5c dd e1 9b e8 28
       107 94 88 45 -17 26 -45 90 -80 18 92 -35 -31 -101 -24 40
000030 ca 3d 40 7f b1 ea 55 e9 41 0b 6f 1d 02 3d e0 1b
       -54 61 64 127 -79 -22 85 -23 65 11 111 29 2 61 -32 27
000040 7f 32 d3 ba 17 7e 0c c5 3a 8a 48 46 c5 4b 3a 4e
       127 50 -45 -70 23 126 12 -59 58 -118 72 70 -59 75 58 78
000050 a9 e3 38 12 23 9e ac b2 c3 c2 ba ce c1 ee cc d6
       -87 -29 56 18 35 -98 -84 -78 -61 -62 -70 -50 -63 -18 -52 -42
000060 92 2b 50 a6 31 36 61 c4 d4 90 d4 9c 52 9a ef 29
       -110 43 80 -90 49 54 97 -60 -44 -112 -44 -100 82 -102 -17 41
000070 47 38 bf c4 4b c1 dc 23 7f ce eb 45 85 bf 77 51
       71 56 -65 -60 75 -63 -36 35 127 -50 -21 69 -123 -65 119 81
000080 93 bf b6 67 3d 27 72 2d d7 4a c0 d0 17 21 68 ed
       -109 -65 -74 103 61 39 114 45 -41 74 -64 -48 23 33 104 -19
000090 9d a7 7f f2 4f cc cb d2 67 b1 3d dc c7 90 5d 56
       -99 -89 127 -14 79 -52 -53 -46 103 -79 61 -36 -57 -112 93 86
0000a0 74 67 1c e6 48 b3 7f aa 2f 33 a6 ae eb 0c 57 3f
       116 103 28 -26 72 -77 127 -86 47 51 -90 -82 -21 12 87 63
0000b0 27 29 95 33 69 d7 99 7a ad cd 0a e7 00 02 ad ad
       39 41 -107 51 105 -41 -103 122 -83 -51 10 -25 0 2 -83 -83
0000c0 d6 39 c6 c5 c5 49 6b 46 44 7c e3 13 e7 3c 8b ec
       -42 57 -58 -59 -59 73 107 70 68 124 -29 19 -25 60 -117 -20
0000d0 6b 44 cf 42 7e fa fa 75 51 e0 3a 81 2f c1 65 8e
       107 68 -49 66 126 -6 -6 117 81 -32 58 -127 47 -63 101 -114
0000e0 6b d5 fb 60 66 8f 7f f0 bf ed 19 16 4f 32 a8 a2
       107 -43 -5 96 102 -113 127 -16 -65 -19 25 22 79 50 -88 -94
0000f0 da 38 b9 96 dd 4b 94 b7 75 98 d1 f2 39 0f fa 7f
       -38 56 -71 -106 -35 75 -108 -73 117 -104 -47 -14 57 15 -6 127

model/conv2d_5/Conv2D i1 [48, 1, 1, 24]
000000 43 f1 76 92 2c 8f 7f bb 36 2b 16 1f 28 be 3c 59
       67 -15 118 -110 44 -113 127 -69 54 43 22 31 40 -66 60 89
000010 d0 a0 a4 4b 22 e6 e2 e8 f2 19 49 e2 5d f6 0f 4e
       -48 -96 -92 75 34 -26 -30 -24 -14 25 73 -30 93 -10 15 78
000020 01 a7 e3 a9 ae 49 fe 0e be a1 01 a7 81 c0 44 37
       1 -89 -29 -87 -82 73 -2 14 -66 -95 1 -89 -127 -64 68 55
000030 62 60 81 d6 8e 26 2d f1 3d a8 0f 5b a5 cc 77 48
       98 96 -127 -42 -114 38 45 -15 61 -88 15 91 -91 -52 119 72
000040 c8 37 47 ef 55 1b e4 16 e3 81 dd ab be d0 c6 bd
       -56 55 71 -17 85 27 -28 22 -29 -127 -35 -85 -66 -48 -58 -67
000050 44 d9 77 81 04 a0 58 e1 d2 4b 39 0e 40 44 38 53
       68 -39 119 -127 4 -96 88 -31 -46 75 57 14 64 68 56 83
000060 f1 9e 64 a0 ff f0 5a db aa 55 b7 94 83 e0 28 de
       -15 -98 100 -96 -1 -16 90 -37 -86 85 -73 -108 -125 -32 40 -34
000070 ef 5b 05 7f 38 0e 32 6d de 72 dd b5 a9 61 57 3d
       -17 91 5 127 56 14 50 109 -34 114 -35 -75 -87 97 87 61
000080 c8 b0 ba f6 81 e6 38 c5 26 b3 d4 f9 23 06 4c cf
       -56 -80 -70 -10 -127 -26 56 -59 38 -77 -44 -7 35 6 76 -49
000090 2a d1 3b d7 c5 81 38 c4 bc 19 51 f5 e8 20 f4 dd
       42 -47 59 -41 -59 -127 56 -60 -68 25 81 -11 -24 32 -12 -35
0000a0 f2 f2 5f ac ba e6 6e 1d 9b e9 e9 f6 3b f7 26 87
       -14 -14 95 -84 -70 -26 110 29 -101 -23 -23 -10 59 -9 38 -121
0000b0 2c 33 54 42 54 33 15 9b f9 16 37 d3 8e 81 bd 1f
       44 51 84 66 84 51 21 -101 -7 22 55 -45 -114 -127 -67 31
0000c0 0c fd e1 c7 b6 79 1a d9 81 41 42 f7 87 01 29 9c
       12 -3 -31 -57 -74 121 26 -39 -127 65 66 -9 -121 1 41 -100
0000d0 bd 48 f8 a0 17 6b 49 b6 c6 15 af 35 84 cf 70 ed
       -67 72 -8 -96 23 107 73 -74 -58 21 -81 53 -124 -49 112 -19
0000e0 e1 55 a1 ce 71 02 96 e6 81 c7 3a c1 f0 f4 26 15
       -31 85 -95 -50 113 2 -106 -26 -127 -57 58 -63 -16 -12 38 21
0000f0 11 f4 ae 07 c9 ed e1 7f d3 c3 10 3e 0d 2b ff be
       17 -12 -82 7 -55 -19 -31 127 -45 -61 16 62 13 43 -1 -66

model/batch_normalization_8/FusedBatchNormV3;model/depthwise_conv2d_2/depthwise;model/depthwise_conv2d_2/BiasAdd/ReadVariableOp;model/depthwise_conv2d_2/BiasAdd i1 [1, 3, 3, 48]
000000 cc 6c 7f 6a 4b bd cf 0f 13 a5 81 69 42 8c 0e 17
       -52 108 127 106 75 -67 -49 15 19 -91 -127 105 66 -116 14 23
000010 e5 05 ae 58 a0 c6 f8 14 18 05 21 f6 a5 a6 1a df
       -27 5 -82 88 -96 -58 -8 20 24 5 33 -10 -91 -90 26 -33
000020 39 3f 27 de 0b 98 2e e9 a1 71 aa 1d 49 c4 81 f7
       57 63 39 -34 11 -104 46 -23 -95 113 -86 29 73 -60 -127 -9
000030 f7 8e af f1 eb 7f d9 11 e2 50 24 e9 05 3c 12 2e
       -9 -114 -81 -15 -21 127 -39 17 -30 80 36 -23 5 60 18 46
000040 6d 9e b5 f7 cc fc c5 7f 7f ed 40 a9 9b 11 81 7f
       109 -98 -75 -9 -52 -4 -59 127 127 -19 64 -87 -101 17 -127 127
000050 bf e6 1a e8 17 81 bb ec 3e fb e2 32 22 bc a6 81
       -65 -26 26 -24 23 -127 -69 -20 62 -5 -30 50 34 -68 -90 -127
000060 16 34 58 d9 39 ee 7f 2e 7f 03 a2 16 93 4b 92 33
       22 52 88 -39 57 -18 127 46 127 3 -94 22 -109 75 -110 51
000070 d9 56 76 c9 f8 ee e9 40 35 cf 0d 23 c6 8e db d6
       -39 86 118 -55 -8 -18 -23 64 53 -49 13 35 -58 -114 -37 -42
000080 c4 00 1d c9 18 e1 03 2f d0 81 5c 6a d3 18 2d cd
       -60 0 29 -55 24 -31 3 47 -48 -127 92 106 -45 24 45 -51
000090 74 f4 25 2c 81 1a 78 b8 08 10 aa 79 7f 81 20 05
       116 -12 37 44 -127 26 120 -72 8 16 -86 121 127 -127 32 5
0000a0 fc 04 08 81 e3 c2 ed ca cd 7f 1a dd 19 d8 03 ce
       -4 4 8 -127 -29 -62 -19 -54 -51 127 26 -35 25 -40 3 -50
0000b0 18 19 7f 7f 7f e5 7f d8 c1 37 11 7f 11 81 02 de
       24 25 127 127 127 -27 127 -40 -63 55 17 127 17 -127 2 -34
0000c0 7f 51 61 cf 2c f6 39 d9 47 e1 4a 11 1f da e4 af
       127 81 97 -49 44 -10 57 -39 71 -31 74 17 31 -38 -28 -81
0000d0 f4 81 71 73 09 81 26 40 7d 22 81 81 b1 e8 3b e0
       -12 -127 113 115 9 -127 38 64 125 34 -127 -127 -79 -24 59 -32
0000e0 7f 81 3b d7 47 35 d1 7f 6b d9 1f 04 15 a6 e0 ef
       127 -127 59 -41 71 53 -47 127 107 -39 31 4 21 -90 -32 -17
0000f0 10 0f 04 81 4a 24 f5 1c 88 dd 55 d5 4b cf fa 42
       16 15 4 -127 74 36 -11 28 -120 -35 85 -43 75 -49 -6 66

model/conv2d_6/Conv2D i1 [24, 1, 1, 48]
000000 d3 37 4a ad 9f 0f 54 c2 21 23 7f 5f 15 b7 2e ca
       -45 55 74 -83 -97 15 84 -62 33 35 127 95 21 -73 46 -54
000010 c7 a0 c6 f8 13 03 46 14 ec c0 3d cc 5b b3 0a 12
       -57 -96 -58 -8 19 3 70 20 -20 -64 61 -52 91 -77 10 18
000020 0c ab df 01 39 f3 0d fa 06 db d3 f0 b5 12 f5 29
       12 -85 -33 1 57 -13 13 -6 6 -37 -45 -16 -75 18 -11 41
000030 c6 d1 44 58 49 ba e2 c3 6a eb f8 31 2f 3e 7a 7f
       -58 -47 68 88 73 -70 -30 -61 106 -21 -8 49 47 62 122 127
000040 b1 e4 d5 e6 f1 3b 2b 56 45 26 f0 ae e5 dc d8 0c
       -79 -28 -43 -26 -15 59 43 86 69 38 -16 -82 -27 -36 -40 12
000050 b0 95 6e 1f a2 5a c0 3b 48 ed 71 a7 1b cb 9c e3
       -80 -107 110 31 -94 90 -64 59 72 -19 113 -89 27 -53 -100 -29
000060 9f 08 86 24 4f e8 a4 4a 6b 1e 36 81 17 a3 3f 50
       -97 8 -122 36 79 -24 -92 74 107 30 54 -127 23 -93 63 80
000070 27 a4 75 bd 07 d2 9a c2 03 cf ff 0f 35 bc 27 ae
       39 -92 117 -67 7 -46 -102 -62 3 -49 -1 15 53 -68 39 -82
000080 36 40 e1 b0 ca f6 12 dc 39 e0 32 27 48 26 a9 fd
       54 64 -31 -80 -54 -10 18 -36 57 -32 50 39 72 38 -87 -3
000090 45 a3 24 42 fd 10 a5 d1 d4 c9 d1 05 81 1c 28 13
       69 -93 36 66 -3 16 -91 -47 -44 -55 -47 5 -127 28 40 19
0000a0 c9 51 bf 32 35 66 3b f5 09 07 5e 02 c3 f7 cc 69
       -55 81 -65 50 53 102 59 -11 9 7 94 2 -61 -9 -52 105
0000b0 05 e2 d0 59 b8 23 af f2 2c c8 9c ce 52 b4 5c bf
       5 -30 -48 89 -72 35 -81 -14 44 -56 -100 -50 82 -76 92 -65
0000c0 09 c3 0a 35 01 de c7 0d c1 35 aa a7 73 2e cd 2a
       9 -61 10 53 1 -34 -57 13 -63 53 -86 -89 115 46 -51 42
0000d0 1a 11 dd 3a 2c 02 5a c4 ed 6a 81 c4 e6 46 be 5a
       26 17 -35 58 44 2 90 -60 -19 106 -127 -60 -26 70 -66 90
0000e0 6f 0d 78 35 22 12 ef 33 3b 09 42 e0 79 f8 43 09
       111 13 120 53 34 18 -17 51 59 9 66 -32 121 -8 67 9
0000f0 72 00 b9 ff e4 d3 a8 bd b3 f2 1d 7f f9 ba ac c8
       114 0 -71 -1 -28 -45 -88 -67 -77 -14 29 127 -7 -70 -84 -56

model/conv2d_7/Conv2D i1 [72, 1, 1, 24]
000000 4d 5f 81 0b fa 3c d7 13 0f 2d ca 0f fe 83 e2 e9
       77 95 -127 11 -6 60 -41 19 15 45 -54 15 -2 -125 -30 -23
000010 39 1d da 50 a2 5b 3e e4 62 c8 d8 22 fc f4 c0 c2
       57 29 -38 80 -94 91 62 -28 98 -56 -40 34 -4 -12 -64 -62
000020 b0 fa da f9 24 1f 65 4b 47 be 53 fb 38 a8 60 81
       -80 -6 -38 -7 36 31 101 75 71 -66 83 -5 56 -88 96 -127
000030 6b 29 3a 15 21 6c 0d 32 df 43 38 3a 39 b5 a9 68
       107 41 58 21 33 108 13 50 -33 67 56 58 57 -75 -87 104
000040 f2 10 3a 0e a0 81 62 b4 15 f1 32 4f f0 27 ca 35
       -14 16 58 14 -96 -127 98 -76 21 -15 50 79 -16 39 -54 53
000050 e8 60 11 df 0b 05 3b d4 b1 e5 ec 4e 7f cf 44 19
       -24 96 17 -33 11 5 59 -44 -79 -27 -20 78 127 -49 68 25
000060 c1 1e 1f 81 12 ce 4d fe 86 d6 63 44 11 f4 df 24
       -63 30 31 -127 18 -50 77 -2 -122 -42 99 68 17 -12 -33 36
000070 0f 12 f0 e4 e2 86 34 fd bc dd c3 12 fc c9 d9 d9
       15 18 -16 -28 -30 -122 52 -3 -68 -35 -61 18 -4 -55 -39 -39
000080 1f 2d d0 11 cd 44 4f 27 1f fd dd af ea 00 81 04
       31 45 -48 17 -51 68 79 39 31 -3 -35 -81 -22 0 -127 4
000090 00 f6 89 59 86 37 ef ce 2e 3d 81 0e e2 ad 8c a3
       0 -10 -119 89 -122 55 -17 -50 46 61 -127 14 -30 -83 -116 -93
0000a0 22 03 45 a9 a3 b2 55 b0 1e 00 0b 4c c7 5f 81 bc
       34 3 69 -87 -93 -78 85 -80 30 0 11 76 -57 95 -127 -68
0000b0 c7 dd 5c 66 66 bb 33 ee a4 1a ad a8 ca 2e 33 c0
       -57 -35 92 102 102 -69 51 -18 -92 26 -83 -88 -54 46 51 -64
0000c0 7f 1d af 4f 98 f5 15 dc e9 00 d8 b9 11 cd 1c 4a
       127 29 -81 79 -104 -11 21 -36 -23 0 -40 -71 17 -51 28 74
0000d0 2d b3 56 00 3b 0b a4 d0 16 02 2f 9b 1b f4 c6 e1
       45 -77 86 0 59 11 -92 -48 22 2 47 -101 27 -12 -58 -31
0000e0 ca 18 1b 24 0e 0d 61 c3 7f 53 41 ca cc e1 17 0b
       -54 24 27 36 14 13 97 -61 127 83 65 -54 -52 -31 23 11
0000f0 d8 32 3b 81 b8 23 f1 21 e0 c8 d4 15 f3 35 09 de
       -40 50 59 -127 -72 35 -15 33 -32 -56 -44 21 -13 53 9 -34

model/batch_normalization_11/FusedBatchNormV3;model/depthwise_conv2d_3/depthwise;model/depthwise_conv2d_3/BiasAdd/ReadVariableOp;model/depthwise_conv2d_3/BiasAdd i1 [1, 3, 3, 72]
000000 73 9f 37 51 41 bf 72 81 09 fe 0a 26 48 43 81 7f
       115 -97 55 81 65 -65 114 -127 9 -2 10 38 72 67 -127 127
000010 54 c7 d0 81 fd 1e 7f 04 fc 01 ea 20 d3 31 e7 76
       84 -57 -48 -127 -3 30 127 4 -4 1 -22 32 -45 49 -25 118
000020 be 0c a9 bb 62 ae 21 1d fe 54 03 43 ea 4e 58 bb
       -66 12 -87 -69 98 -82 33 29 -2 84 3 67 -22 78 88 -69
000030 4d 46 ce 7f 21 bc 37 22 de 13 95 8f d2 42 d9 d2
       77 70 -50 127 33 -68 55 34 -34 19 -107 -113 -46 66 -39 -46
000040 f1 85 56 93 6f dc 37 e0 d1 32 20 84 81 9b 9e a5
       -15 -123 86 -109 111 -36 55 -32 -47 50 32 -124 -127 -101 -98 -91
000050 0d 84 40 b0 a2 b9 c4 15 e1 a2 81 36 03 09 32 9f
       13 -124 64 -80 -94 -71 -60 21 -31 -94 -127 54 3 9 50 -97
000060 dd f4 2e f0 f3 ef 01 7f fa 89 81 09 5f e5 18 3a
       -35 -12 46 -16 -13 -17 1 127 -6 -119 -127 9 95 -27 24 58
000070 21 c6 73 96 2c d4 5d 81 19 d7 1d b2 4a 1f 3c 06
       33 -58 115 -106 44 -44 93 -127 25 -41 29 -78 74 31 60 6
000080 78 37 cb 1b 15 bd 01 43 ac b7 7f fc dc 75 7f 3e
       120 55 -53 27 21 -67 1 67 -84 -73 127 -4 -36 117 127 62
000090 ee 22 cc 07 b4 ae 64 be 60 d1 4e aa 18 c8 0b 1c
       -18 34 -52 7 -76 -82 100 -66 96 -47 78 -86 24 -56 11 28
0000a0 81 81 ed bf de 05 48 cb 8f 35 1c f9 4b fd a7 27
       -127 -127 -19 -65 -34 5 72 -53 -113 53 28 -7 75 -3 -89 39
0000b0 68 81 eb 6d 42 81 45 09 d7 9e 81 76 e8 3f 1d 21
       104 -127 -21 109 66 -127 69 9 -41 -98 -127 118 -24 63 29 33
0000c0 ef 56 05 50 bd 72 a5 43 63 d7 a2 96 e2 9e db 7f
       -17 86 5 80 -67 114 -91 67 99 -41 -94 -106 -30 -98 -37 127
0000d0 51 6b 1f 88 2d 4b ba 7f 47 0f d8 e8 b3 ed 7f 1f
       81 107 31 -120 45 75 -70 127 71 15 -40 -24 -77 -19 127 31
0000e0 7f aa 56 12 4c a2 2e 3c 62 db ab cf cf 1e f8 d6
       127 -86 86 18 76 -94 46 60 98 -37 -85 -49 -49 30 -8 -42
0000f0 5c c0 7f 19 3a 31 43 60 eb 0b e6 5d f0 22 17 dc
       92 -64 127 25 58 49 67 96 -21 11 -26 93 -16 34 23 -36

model/conv2d_8/Conv2D i1 [32, 1, 1, 72]
000000 4b 19 a9 91 f2 39 b9 e3 70 cb 1b f4 c3 e4 e3 f3
       75 25 -87 -111 -14 57 -71 -29 112 -53 27 -12 -61 -28 -29 -13
000010 ca d3 3f de e4 d9 09 b5 7f a6 05 eb d8 01 4b 70
       -54 -45 63 -34 -28 -39 9 -75 127 -90 5 -21 -40 1 75 112
000020 61 3a 44 a1 4c 52 3d 44 5c 7a 0a 2a 66 d9 fa 30
       97 58 68 -95 76 82 61 68 92 122 10 42 102 -39 -6 48
000030 f9 c2 3e bb 13 c6 e2 e6 8d e0 b3 32 ba 12 40 8c
       -7 -62 62 -69 19 -58 -30 -26 -115 -32 -77 50 -70 18 64 -116
000040 36 4f 2d 4f a6 bd 42 f2 1c 55 f9 23 28 dd b5 2c
       54 79 45 79 -90 -67 66 -14 28 85 -7 35 40 -35 -75 44
000050 ad ff 53 1b 2d b3 e2 2e 52 d5 5a 48 16 0f bb de
       -83 -1 83 27 45 -77 -30 46 82 -43 90 72 22 15 -69 -34
000060 be 58 b6 24 0b 55 a1 1c d9 37 4b ce 4b db 44 4e
       -66 88 -74 36 11 85 -95 28 -39 55 75 -50 75 -37 68 78
000070 c9 e0 4a d2 9b 76 6a 13 dc 08 b5 d1 2c fa 01 33
       -55 -32 74 -46 -101 118 106 19 -36 8 -75 -47 44 -6 1 51
000080 38 b9 59 bd 1d 12 34 5e ef 03 d2 1a df 41 4b 7f
       56 -71 89 -67 29 18 52 94 -17 3 -46 26 -33 65 75 127
000090 cb 0d 51 bd 8c 47 e7 37 c8 ce 3d b3 4a f6 00 2e
       -53 13 81 -67 -116 71 -25 55 -56 -50 61 -77 74 -10 0 46
0000a0 39 ef c4 c5 0e a8 41 fd cd 73 de ce 2c 0b 16 44
       57 -17 -60 -59 14 -88 65 -3 -51 115 -34 -50 44 11 22 68
0000b0 f8 30 68 25 62 fa c0 a0 18 bd fe d3 7f 40 bf b6
       -8 48 104 37 98 -6 -64 -96 24 -67 -2 -45 127 64 -65 -74
0000c0 50 fd 38 c5 45 39 b0 f5 0d c0 f7 0b d9 0a fa 03
       80 -3 56 -59 69 57 -80 -11 13 -64 -9 11 -39 10 -6 3
0000d0 ed e6 42 64 a8 cb b2 9f 06 51 d6 9d d7 60 4e 1b
       -19 -26 66 100 -88 -53 -78 -97 6 81 -42 -99 -41 96 78 27
0000e0 23 dc ea d6 72 05 f1 56 b6 d4 2b 13 a1 e2 2f cb
       35 -36 -22 -42 114 5 -15 86 -74 -44 43 19 -95 -30 47 -53
0000f0 60 bc 04 51 7c 33 dd 81 34 f3 4f e3 95 f7 07 50
       96 -68 4 81 124 51 -35 -127 52 -13 79 -29 -107 -9 7 80

model/conv2d_9/Conv2D i1 [96, 1, 1, 32]
000000 00 51 17 bf 54 fe 6a fb a1 0d 7f 66 53 0f 52 c7
       0 81 23 -65 84 -2 106 -5 -95 13 127 102 83 15 82 -57
000010 e0 a0 d8 1f 5c 1a dc db 3b 02 ac 60 ab 6d e6 de
       -32 -96 -40 31 92 26 -36 -37 59 2 -84 96 -85 109 -26 -34
000020 c8 24 f1 38 d6 15 b6 10 32 0f dd 98 f9 0b 9b f9
       -56 36 -15 56 -42 21 -74 16 50 15 -35 -104 -7 11 -101 -7
000030 6a 0b 25 c1 f5 08 9c 1b ce df 3a b6 1d d1 7f 50
       106 11 37 -63 -11 8 -100 27 -50 -33 58 -74 29 -47 127 80
000040 b6 bd ca a8 c6 c1 5a 9d 5b 0d 8a 0f 81 b2 c3 e9
       -74 -67 -54 -88 -58 -63 90 -99 91 13 -118 15 -127 -78 -61 -23
000050 d6 5a c2 98 2f 5e 0c 1a d8 f0 be 22 3b 99 89 1a
       -42 90 -62 -104 47 94 12 26 -40 -16 -66 34 59 -103 -119 26
000060 f2 fa dc f3 cc eb 0c 57 33 4a 26 0b 50 d6 d7 81
       -14 -6 -36 -13 -52 -21 12 87 51 74 38 11 80 -42 -41 -127
000070 3a 40 f3 e2 e2 5e 05 1b b9 18 0d 0e c6 a9 1a 62
       58 64 -13 -30 -30 94 5 27 -71 24 13 14 -58 -87 26 98
000080 7f c3 63 d8 c2 2b ad de a8 b5 f8 70 20 05 fb 3c
       127 -61 99 -40 -62 43 -83 -34 -88 -75 -8 112 32 5 -5 60
000090 1a f9 db 8f 3d ad 84 aa 0e a6 ec 91 fe f4 28 fc
       26 -7 -37 -113 61 -83 -124 -86 14 -90 -20 -111 -2 -12 40 -4
0000a0 56 ad e7 b1 38 45 b9 fa c4 4e fd 0e 3a 5c 1d 4c
       86 -83 -25 -79 56 69 -71 -6 -60 78 -3 14 58 92 29 76
0000b0 77 60 df ec d0 29 fd 15 3b 29 13 49 d9 81 d0 0f
       119 96 -33 -20 -48 41 -3 21 59 41 19 73 -39 -127 -48 15
0000c0 1c bc d5 6a ae 17 f7 a3 33 b4 50 21 46 95 01 fe
       28 -68 -43 106 -82 23 -9 -93 51 -76 80 33 70 -107 1 -2
0000d0 3f e5 42 3b 5a 81 33 2c cf 28 64 49 14 b0 0a b8
       63 -27 66 59 90 -127 51 44 -49 40 100 73 20 -80 10 -72
0000e0 ea b6 63 ea 46 46 46 43 2d 86 99 0a 7f ef 47 1f
       -22 -74 99 -22 70 70 70 67 45 -122 -103 10 127 -17 71 31
0000f0 92 43 56 2d 41 eb 43 4c 5f c3 5e 00 47 e0 01 19
       -110 67 86 45 65 -21 67 76 95 -61 94 0 71 -32 1 25

model/batch_normalization_14/FusedBatchNormV3;model/depthwise_conv2d_4/depthwise;model/depthwise_conv2d_4/BiasAdd/ReadVariableOp;model/depthwise_conv2d_4/BiasAdd i1 [1, 3, 3, 96]
000000 6e 05 66 ff 23 1d e4 a8 dc 8f 27 00 0f fc fa 7f
       110 5 102 -1 35 29 -28 -88 -36 -113 39 0 15 -4 -6 127
000010 47 a3 d5 0c c5 18 7f 0c df fa 66 fc 18 e4 de 1b
       71 -93 -43 12 -59 24 127 12 -33 -6 102 -4 24 -28 -34 27
000020 14 1d 90 e4 19 d7 bb 7f 04 aa a3 21 a4 19 b8 bd
       20 29 -112 -28 25 -41 -69 127 4 -86 -93 33 -92 25 -72 -67
000030 29 81 cc f0 be 7f 0f 9c 38 5b c7 f5 0b 35 0e e5
       41 -127 -52 -16 -66 127 15 -100 56 91 -57 -11 11 53 14 -27
000040 3f c7 17 44 db 81 3a e0 3d 97 d9 1f 7f ee 18 35
       63 -57 23 68 -37 -127 58 -32 61 -105 -39 31 127 -18 24 53
000050 97 13 3f b9 d0 7f 83 f1 fa 8d 61 b2 c5 f9 c1 37
       -105 19 63 -71 -48 127 -125 -15 -6 -115 97 -78 -59 -7 -63 55
000060 15 7f d0 50 62 14 19 a5 c3 9a 6c 04 ab 7f 7f ff
       21 127 -48 80 98 20 25 -91 -61 -102 108 4 -85 127 127 -1
000070 47 81 c3 2e 81 55 6d 92 81 b8 41 da 01 fe 69 26
       71 -127 -61 46 -127 85 109 -110 -127 -72 65 -38 1 -2 105 38
000080 26 01 21 81 0f 7f 3a 50 36 4d 12 f1 9a 54 4d ec
       38 1 33 -127 15 127 58 80 54 77 18 -15 -102 84 77 -20
000090 ca 17 38 2e 74 e3 17 ea b9 df 15 76 f6 7f 2d 01
       -54 23 56 46 116 -29 23 -22 -71 -33 21 118 -10 127 45 1
0000a0 28 e4 91 c7 2c cf 84 32 eb c8 c0 3d 66 36 f3 7f
       40 -28 -111 -57 44 -49 -124 50 -21 -56 -64 61 102 54 -13 127
0000b0 92 0c 19 b1 b1 2d 3e 8e 6f be 31 e0 f7 81 7f 7f
       -110 12 25 -79 -79 45 62 -114 111 -66 49 -32 -9 -127 127 127
0000c0 7f ea eb 18 14 b3 c8 81 81 7f 35 c9 37 35 20 22
       127 -22 -21 24 20 -77 -56 -127 -127 127 53 -55 55 53 32 34
0000d0 81 a1 f6 6a 01 7f ed 03 e7 ed c2 e5 45 10 a2 c4
       -127 -95 -10 106 1 127 -19 3 -25 -19 -62 -27 69 16 -94 -60
0000e0 19 d3 81 48 81 ec 3c 3e 33 26 de 4f 4a ae b7 0e
       25 -45 -127 72 -127 -20 60 62 51 38 -34 79 74 -82 -73 14
0000f0 b1 b2 f9 c4 81 2d 7f df f4 4f 7f 57 8f 61 e7 36
       -79 -78 -7 -60 -127 45 127 -33 -12 79 127 87 -113 97 -25 54

model/conv2d_10/Conv2D i1 [32, 1, 1, 96]
000000 cb 8f a2 e6 15 56 db ec c1 14 2d b9 10 dc 2a 2c
       -53 -113 -94 -26 21 86 -37 -20 -63 20 45 -71 16 -36 42 44
000010 ec 0b 9d f9 8c 2d e0 b4 48 b6 ed d5 7a b1 60 6a
       -20 11 -99 -7 -116 45 -32 -76 72 -74 -19 -43 122 -79 96 106
000020 bf c1 95 20 16 60 64 a9 dc 28 4c 0a bc 0d 36 a6
       -65 -63 -107 32 22 96 100 -87 -36 40 76 10 -68 13 54 -90
000030 f2 09 13 5c e9 eb 2a 5a cc f7 be 99 4f 37 20 f1
       -14 9 19 92 -23 -21 42 90 -52 -9 -66 -103 79 55 32 -15
000040 5b 36 be 3e 3a 0b 04 0e 8f a7 3f 6f ce d8 81 e5
       91 54 -66 62 58 11 4 14 -113 -89 63 111 -50 -40 -127 -27
000050 15 90 fc b6 d4 cd 25 4c 37 37 34 33 ed c9 39 bb
       21 -112 -4 -74 -44 -51 37 76 55 55 52 51 -19 -55 57 -69
000060 55 f8 31 a5 b0 fe 1a d2 c8 36 eb ab 4c bb 0a e4
       85 -8 49 -91 -80 -2 26 -46 -56 54 -21 -85 76 -69 10 -28
000070 59 f1 5e 66 e0 44 c4 14 49 d7 0c 08 02 0c 26 5d
       89 -15 94 102 -32 68 -60 20 73 -41 12 8 2 12 38 93
000080 f1 a7 f1 20 15 a3 50 e6 5a 17 fb e9 d8 1c 06 20
       -15 -89 -15 32 21 -93 80 -26 90 23 -5 -23 -40 28 6 32
000090 02 0f d6 55 a7 5e e6 c1 c5 14 e7 55 57 62 ea f9
       2 15 -42 85 -89 94 -26 -63 -59 20 -25 85 87 98 -22 -7
0000a0 77 dc 31 75 3a 21 55 16 dd 22 e9 81 4e d8 d9 07
       119 -36 49 117 58 33 85 22 -35 34 -23 -127 78 -40 -39 7
0000b0 1d f0 d7 66 61 5a ec f7 5e 1a bb 49 5c 20 16 55
       29 -16 -41 102 97 90 -20 -9 94 26 -69 73 92 32 22 85
0000c0 c9 1a 5a e7 fd 20 20 e5 59 51 aa 1b d4 19 11 dd
       -55 26 90 -25 -3 32 32 -27 89 81 -86 27 -44 25 17 -35
0000d0 0e dd 1f 17 bf 72 05 1f 26 eb bb 0b ad e7 14 a7
       14 -35 31 23 -65 114 5 31 38 -21 -69 11 -83 -25 20 -89
0000e0 ba 06 01 d7 3a c8 04 c4 36 e1 3f 43 ba 14 1d 39
       -70 6 1 -41 58 -56 4 -60 54 -31 63 67 -70 20 29 57
0000f0 7f b8 4c 1d 45 fc d2 9d ce 04 88 6f ef 2f e8 ee
       127 -72 76 29 69 -4 -46 -99 -50 4 -120 111 -17 47 -24 -18

model/conv2d_11/Conv2D i1 [64, 1, 1, 32]
000000 11 c4 e4 01 1e e0 81 fb 2c b0 cd bf 5b 9f 75 a4
       17 -60 -28 1 30 -32 -127 -5 44 -80 -51 -65 91 -97 117 -92
000010 4e 2b 20 b4 1d 19 16 39 5b c9 79 36 f6 d9 22 8b
       78 43 32 -76 29 25 22 57 91 -55 121 54 -10 -39 34 -117
000020 9a a9 01 d9 e2 dd 81 01 09 16 58 b6 bf 0a 37 6a
       -102 -87 1 -39 -30 -35 -127 1 9 22 88 -74 -65 10 55 106
000030 e0 2c f7 e0 2c a2 12 ae b0 c1 f7 f1 34 5b 77 9d
       -32 44 -9 -32 44 -94 18 -82 -80 -63 -9 -15 52 91 119 -99
000040 b6 48 8b 24 2f 9d 79 12 a7 8c f4 f7 3f 8f 5d e4
       -74 72 -117 36 47 -99 121 18 -89 -116 -12 -9 63 -113 93 -28
000050 ff 23 c5 8d cf f5 60 5e 7f 14 f6 b3 69 46 97 31
       -1 35 -59 -115 -49 -11 96 94 127 20 -10 -77 105 70 -105 49
000060 8e 07 dc d3 f0 bb dc c8 62 5d 36 9e d7 d1 eb 0d
       -114 7 -36 -45 -16 -69 -36 -56 98 93 54 -98 -41 -47 -21 13
000070 c8 05 08 a3 81 c8 d0 fe 8c 58 7b b5 b2 6d fe 26
       -56 5 8 -93 -127 -56 -48 -2 -116 88 123 -75 -78 109 -2 38
000080 e9 6c b5 73 f6 27 45 cb 0c eb 93 34 d4 25 fb ec
       -23 108 -75 115 -10 39 69 -53 12 -21 -109 52 -44 37 -5 -20
000090 dc 40 51 a4 cf c2 43 7e 14 a6 7f a3 4a 75 c2 a7
       -36 64 81 -92 -49 -62 67 126 20 -90 127 -93 74 117 -62 -89
0000a0 33 59 18 eb 53 b4 cc a2 f3 d0 0d e1 82 c7 d7 97
       51 89 24 -21 83 -76 -52 -94 -13 -48 13 -31 -126 -57 -41 -105
0000b0 de 26 e8 da 63 05 17 65 7f 48 1d 39 71 31 a6 45
       -34 38 -24 -38 99 5 23 101 127 72 29 57 113 49 -90 69
0000c0 ad 8c a2 32 fb 2a 32 bf 30 e0 ea 57 f1 69 f7 a0
       -83 -116 -94 50 -5 42 50 -65 48 -32 -22 87 -15 105 -9 -96
0000d0 d9 da ab 2c f7 7f 5b 3c 5d f2 b0 c2 01 26 f4 e3
       -39 -38 -85 44 -9 127 91 60 93 -14 -80 -62 1 38 -12 -29
0000e0 9d 9a 33 bb e5 a6 e5 f8 0c 46 24 57 71 1b 09 d0
       -99 -102 51 -69 -27 -90 -27 -8 12 70 36 87 113 27 9 -48
0000f0 86 81 7e 54 41 de b7 03 4d 2d fa 32 25 48 02 ca
       -122 -127 126 84 65 -34 -73 3 77 45 -6 50 37 72 2 -54

model/batch_normalization_17/FusedBatchNormV3;model/depthwise_conv2d_5/depthwise;model/depthwise_conv2d_5/BiasAdd/ReadVariableOp;model/depthwise_conv2d_5/BiasAdd;model/depthwise_conv2d_7/depthwise i1 [1, 5, 5, 64]
000000 f1 20 e9 0c 55 c3 f8 03 f5 f7 b1 36 08 f2 11 f4
       -15 32 -23 12 85 -61 -8 3 -11 -9 -79 54 8 -14 17 -12
000010 05 24 fe 0a d4 14 f1 0f 40 f4 0d 4f de db 7f cc
       5 36 -2 10 -44 20 -15 15 64 -12 13 79 -34 -37 127 -52
000020 40 72 d1 45 f3 e5 1f 55 6f 0b 3f a2 3f 54 14 3a
       64 114 -47 69 -13 -27 31 85 111 11 63 -94 63 84 20 58
000030 f6 54 81 3d 78 d0 96 d1 81 34 a5 ee 19 bb e9 34
       -10 84 -127 61 120 -48 -106 -47 -127 52 -91 -18 25 -69 -23 52
000040 7b fe 24 cd 20 28 37 df b9 2e d0 ff 45 34 7d bf
       123 -2 36 -51 32 40 55 -33 -71 46 -48 -1 69 52 125 -65
000050 da 19 07 08 9b 21 fe 35 34 1f 3e 77 e3 1e 64 f1
       -38 25 7 8 -101 33 -2 53 52 31 62 119 -29 30 100 -15
000060 06 5a 0f b7 ef 81 11 6a f8 8d 2b fb 90 b6 2a 6b
       6 90 15 -73 -17 -127 17 106 -8 -115 43 -5 -112 -74 42 107
000070 dd 26 2a c5 0d 26 c2 1d dd 26 13 ea c5 47 1f ff
       -35 38 42 -59 13 38 -62 29 -35 38 19 -22 -59 71 31 -1
000080 49 15 bf 42 3f 1b 03 c9 22 54 6a ef 74 b9 79 96
       73 21 -65 66 63 27 3 -55 34 84 106 -17 116 -71 121 -106
000090 58 66 39 4b e5 1b 9a fd 0b 14 4b 72 89 ce c1 04
       88 102 57 75 -27 27 -102 -3 11 20 75 114 -119 -50 -63 4
0000a0 07 03 27 81 22 9a 32 12 0e 20 30 3a b1 00 a4 11
       7 3 39 -127 34 -102 50 18 14 32 48 58 -79 0 -92 17
0000b0 cf b5 aa 2d ec ac d0 13 16 f3 e8 e3 fb c8 de 00
       -49 -75 -86 45 -20 -84 -48 19 22 -13 -24 -29 -5 -56 -34 0
0000c0 e2 17 c8 04 fd 1c 0a d0 7f ed 5b 21 36 5e 51 f3
       -30 23 -56 4 -3 28 10 -48 127 -19 91 33 54 94 81 -13
0000d0 f9 5f be 2d e6 27 d4 7d 1a 3f 00 33 84 07 08 16
       -7 95 -66 45 -26 39 -44 125 26 63 0 51 -124 7 8 22
0000e0 16 1d 37 03 4a 8a f1 01 04 eb 09 0f 12 1a 01 0b
       22 29 55 3 74 -118 -15 1 4 -21 9 15 18 26 1 11
0000f0 e8 0d da 09 90 d7 c0 5d c9 21 e7 95 bd 02 21 ee
       -24 13 -38 9 -112 -41 -64 93 -55 33 -25 -107 -67 2 33 -18

model/conv2d_12/Conv2D i1 [32, 1, 1, 64]
000000 a5 2d b4 aa cb 18 2e 9a 63 1a 3c d7 16 62 f9 0f
       -91 45 -76 -86 -53 24 46 -102 99 26 60 -41 22 98 -7 15
000010 5d 81 92 f7 2e 02 c4 68 4e 5f 21 1f fa e5 50 50
       93 -127 -110 -9 46 2 -60 104 78 95 33 31 -6 -27 80 80
000020 c0 7a 27 2b 41 d1 3b 04 eb 10 0b 3c e9 98 29 e5
       -64 122 39 43 65 -47 59 4 -21 16 11 60 -23 -104 41 -27
000030 19 45 18 01 92 1f 4b f6 19 e3 f4 35 a7 ed 65 0b
       25 69 24 1 -110 31 75 -10 25 -29 -12 53 -89 -19 101 11
000040 b3 15 4a 55 44 10 f7 10 d6 2d d4 d2 b9 94 33 bf
       -77 21 74 85 68 16 -9 16 -42 45 -44 -46 -71 -108 51 -65
000050 47 aa 33 4d 96 34 04 6c c9 e6 48 6b c6 c1 a3 43
       71 -86 51 77 -106 52 4 108 -55 -26 72 107 -58 -63 -93 67
000060 1f 2e 20 f8 0d 61 27 c5 31 ef 8a d0 55 f4 26 e0
       31 46 32 -8 13 97 39 -59 49 -17 -118 -48 85 -12 38 -32
000070 16 b1 35 42 d8 2c 52 e5 e6 f5 fc e0 01 10 c3 7f
       22 -79 53 66 -40 44 82 -27 -26 -11 -4 -32 1 16 -61 127
000080 19 d8 7c 41 d9 3c 0b 37 5d af 48 63 b3 ae 35 0a
       25 -40 124 65 -39 60 11 55 93 -81 72 99 -77 -82 53 10
000090 ca fb 9d 66 7f 29 8b 0b aa ea ba bf 1f 2c 5d 2a
       -54 -5 -99 102 127 41 -117 11 -86 -22 -70 -65 31 44 93 42
0000a0 e5 47 eb c9 12 3f c9 2d 32 40 d8 4b 70 d0 d1 17
       -27 71 -21 -55 18 63 -55 45 50 64 -40 75 112 -48 -47 23
0000b0 d9 47 b8 ce 3b b7 4b 98 b2 40 6f 3a 59 14 23 17
       -39 71 -72 -50 59 -73 75 -104 -78 64 111 58 89 20 35 23
0000c0 2b 34 f0 f0 c9 ea d9 03 8f e0 9b be 4a ed 81 e3
       43 52 -16 -16 -55 -22 -39 3 -113 -32 -101 -66 74 -19 -127 -29
0000d0 00 ce ff f1 54 50 fc 8a 1c e4 38 17 ec 24 4b 0a
       0 -50 -1 -15 84 80 -4 -118 28 -28 56 23 -20 36 75 10
0000e0 42 89 d1 20 a0 db 01 d0 78 f3 dd c5 46 b4 36 fd
       66 -119 -47 32 -96 -37 1 -48 120 -13 -35 -59 70 -76 54 -3
0000f0 15 40 44 46 a1 2c 69 d9 a3 f4 32 4a 66 b0 ae e1
       21 64 68 70 -95 44 105 -39 -93 -12 50 74 102 -80 -82 -31

model/conv2d_13/Conv2D i1 [64, 1, 1, 32]
000000 5f b4 56 0d de ea dd 07 fe 68 54 81 99 f6 49 3d
       95 -76 86 13 -34 -22 -35 7 -2 104 84 -127 -103 -10 73 61
000010 37 c6 4d ac ee ad b5 be d2 1f bb 82 e9 aa 77 c2
       55 -58 77 -84 -18 -83 -75 -66 -46 31 -69 -126 -23 -86 119 -62
000020 f2 3c 9e 2e a4 7a 3d b2 c3 a1 c0 d8 9c 96 da f4
       -14 60 -98 46 -92 122 61 -78 -61 -95 -64 -40 -100 -106 -38 -12
000030 16 50 a6 e7 d0 21 23 83 73 98 0b 7f e7 39 91 e6
       22 80 -90 -25 -48 33 35 -125 115 -104 11 127 -25 57 -111 -26
000040 ee 59 22 7f ca f1 51 18 ac b0 34 00 cd ca df 6a
       -18 89 34 127 -54 -15 81 24 -84 -80 52 0 -51 -54 -33 106
000050 4a dd 2a 94 ee 25 b3 19 07 ef 2e a4 f3 a1 cf d1
       74 -35 42 -108 -18 37 -77 25 7 -17 46 -92 -13 -95 -49 -47
000060 dc ce 98 be 62 d3 c5 8a 21 0d cb 4c fc d2 1e b4
       -36 -50 -104 -66 98 -45 -59 -118 33 13 -53 76 -4 -46 30 -76
000070 2a ae be b2 7f 93 fe ef f0 cb 38 1c d8 4e 01 cc
       42 -82 -66 -78 127 -109 -2 -17 -16 -53 56 28 -40 78 1 -52
000080 be 50 eb bb dd c8 f3 56 b6 3e 97 1a 25 57 63 f6
       -66 80 -21 -69 -35 -56 -13 86 -74 62 -105 26 37 87 99 -10
000090 46 db 4b 1e cd 3c bf 04 eb af ee 81 e8 37 e0 0a
       70 -37 75 30 -51 60 -65 4 -21 -81 -18 -127 -24 55 -32 10
0000a0 35 df c8 d3 2f 50 4b 68 df af 50 38 44 9f b5 be
       53 -33 -56 -45 47 80 75 104 -33 -81 80 56 68 -97 -75 -66
0000b0 35 36 d8 7f e1 18 0b e6 a1 ab 2d c7 1f 9d f9 b4
       53 54 -40 127 -31 24 11 -26 -95 -85 45 -57 31 -99 -7 -76
0000c0 89 53 a2 81 d2 30 ba bb 0a 01 4b 52 67 25 de e1
       -119 83 -94 -127 -46 48 -70 -69 10 1 75 82 103 37 -34 -31
0000d0 27 3b 07 04 e7 6f 23 bd dd 52 e9 3d 7c f2 39 5e
       39 59 7 4 -25 111 35 -67 -35 82 -23 61 124 -14 57 94
0000e0 bb 43 90 be fd bc f7 f0 bf ef fb fc 7f b2 51 31
       -69 67 -112 -66 -3 -68 -9 -16 -65 -17 -5 -4 127 -78 81 49
0000f0 5c f6 15 02 47 f2 ab ca b4 f3 d0 24 2d f5 e0 3e
       92 -10 21 2 71 -14 -85 -54 -76 -13 -48 36 45 -11 -32 62

model/batch_normalization_20/FusedBatchNormV3;model/depthwise_conv2d_6/depthwise;model/depthwise_conv2d_6/BiasAdd/ReadVariableOp;model/depthwise_conv2d_6/BiasAdd;model/depthwise_conv2d_7/depthwise i1 [1, 5, 5, 64]
000000 7f e1 4e 38 35 de a9 e1 20 10 b1 71 d5 e7 db ac
       127 -31 78 56 53 -34 -87 -31 32 16 -79 113 -43 -25 -37 -84
000010 73 a5 cc 32 fa 29 8a 7e fa 09 5d e9 08 f2 20 0f
       115 -91 -52 50 -6 41 -118 126 -6 9 93 -23 8 -14 32 15
000020 0f e4 24 24 f1 7f fb 3e d5 0d 0a ea c5 cb 31 1d
       15 -28 36 36 -15 127 -5 62 -43 13 10 -22 -59 -53 49 29
000030 7f e9 1f 4d 13 17 9e 3c b4 d9 35 de 11 b4 e4 02
       127 -23 31 77 19 23 -98 60 -76 -39 53 -34 17 -76 -28 2
000040 f7 c4 f3 7f 0f 4e dd e0 bb 15 e6 29 b9 10 c1 fa
       -9 -60 -13 127 15 78 -35 -32 -69 21 -26 41 -71 16 -63 -6
000050 73 fa d0 f0 26 45 e1 4d d3 0a 72 c7 95 48 d9 c6
       115 -6 -48 -16 38 69 -31 77 -45 10 114 -57 -107 72 -39 -58
000060 3c d5 fa 66 3f 2e fa 42 f8 c7 af ff ce 99 d6 7f
       60 -43 -6 102 63 46 -6 66 -8 -57 -81 -1 -50 -103 -42 127
000070 45 05 11 28 75 e2 d3 14 03 c3 81 c5 f5 be e0 1b
       69 5 17 40 117 -30 -45 20 3 -61 -127 -59 -11 -66 -32 27
000080 40 9c 19 41 66 d0 9d b2 e1 1f 0f fc 1b f6 2d 06
       64 -100 25 65 102 -48 -99 -78 -31 31 15 -4 27 -10 45 6
000090 41 84 b9 ca 49 f1 81 3c 27 2b 38 7f d7 9a e2 81
       65 -124 -71 -54 73 -15 -127 60 39 43 56 127 -41 -102 -30 -127
0000a0 7f dd f5 5e e9 f9 4d 4c c0 0a 7f bb 28 c5 63 57
       127 -35 -11 94 -23 -7 77 76 -64 10 127 -69 40 -59 99 87
0000b0 f5 30 3d f8 33 ed 23 c7 0b 00 a5 81 bc fd 18 c0
       -11 48 61 -8 51 -19 35 -57 11 0 -91 -127 -68 -3 24 -64
0000c0 4b 15 df dc 05 cd 6f d7 df 12 f5 31 42 a0 1f 25
       75 21 -33 -36 5 -51 111 -41 -33 18 -11 49 66 -96 31 37
0000d0 0f b0 ae 05 ef 43 ec 06 39 3a 0b 36 1f ee ef 9d
       15 -80 -82 5 -17 67 -20 6 57 58 11 54 31 -18 -17 -99
0000e0 35 81 e2 15 3d 54 fa 0f f3 10 6f fd 20 02 0a 37
       53 -127 -30 21 61 84 -6 15 -13 16 111 -3 32 2 10 55
0000f0 1b 46 43 05 12 ec 09 44 a4 f6 b3 ed 27 11 11 ab
       27 70 67 5 18 -20 9 68 -92 -10 -77 -19 39 17 17 -85

model/conv2d_14/Conv2D i1 [32, 1, 1, 64]
000000 42 10 9f 29 7d e3 ce e2 6f f5 f3 ea 4e 5a 38 0f
       66 16 -97 41 125 -29 -50 -30 111 -11 -13 -22 78 90 56 15
000010 be ed ed 59 70 51 e5 1d bd 51 d2 ba 66 f1 f3 71
       -66 -19 -19 89 112 81 -27 29 -67 81 -46 -70 102 -15 -13 113
000020 fb 9e ee 4a f2 e4 9c 7f e7 3d d6 72 d4 1c 13 00
       -5 -98 -18 74 -14 -28 -100 127 -25 61 -42 114 -44 28 19 0
000030 c3 64 bd 74 34 be 39 b4 c4 d4 03 40 5e bf b9 c2
       -61 100 -67 116 52 -66 57 -76 -60 -44 3 64 94 -65 -71 -62
000040 55 09 b1 3d 3a 52 59 f7 e4 de de ee e6 93 d3 bd
       85 9 -79 61 58 82 89 -9 -28 -34 -34 -18 -26 -109 -45 -67
000050 33 36 27 e1 22 1e 09 41 08 11 52 7f 88 51 39 b2
       51 54 39 -31 34 30 9 65 8 17 82 127 -120 81 57 -78
000060 af 19 17 48 62 14 c0 04 26 7e 76 6b c8 b7 3a c7
       -81 25 23 72 98 20 -64 4 38 126 118 107 -56 -73 58 -57
000070 c1 b9 1f 33 67 5f 14 88 eb 96 0a 86 ff 88 bf fd
       -63 -71 31 51 103 95 20 -120 -21 -106 10 -122 -1 -120 -65 -3
000080 1e bf 0b 76 ca ea 53 49 77 33 ca c7 e7 67 ec 31
       30 -65 11 118 -54 -22 83 73 119 51 -54 -57 -25 103 -20 49
000090 6b dd ff 52 d4 71 81 52 dd 6f 28 1e 49 a0 ee 6c
       107 -35 -1 82 -44 113 -127 82 -35 111 40 30 73 -96 -18 108
0000a0 f8 75 f1 f4 f8 d3 bf d0 92 06 3f 29 d3 55 16 eb
       -8 117 -15 -12 -8 -45 -65 -48 -110 6 63 41 -45 85 22 -21
0000b0 53 1a 40 b8 3e 42 e6 d4 26 28 3f 4f 28 fd 2f 22
       83 26 64 -72 62 66 -26 -44 38 40 63 79 40 -3 47 34
0000c0 92 37 f2 e9 25 39 f4 26 46 e4 0b b2 3d d9 a8 58
       -110 55 -14 -23 37 57 -12 38 70 -28 11 -78 61 -39 -88 88
0000d0 67 38 55 c2 2b b2 12 86 24 40 2e 0e fb c5 fa 7f
       103 56 85 -62 43 -78 18 -122 36 64 46 14 -5 -59 -6 127
0000e0 41 e9 f7 01 fa 2f cc c4 36 1f 98 40 a8 66 62 b4
       65 -23 -9 1 -6 47 -52 -60 54 31 -104 64 -88 102 98 -76
0000f0 13 1e 44 d8 f7 15 ec b8 bf ff 42 1c 96 44 ac cc
       19 30 68 -40 -9 21 -20 -72 -65 -1 66 28 -106 68 -84 -52

model/conv2d_15/Conv2D i1 [64, 1, 1, 32]
000000 c4 f5 06 3f b7 1b 48 89 02 e3 e1 62 00 db 5c 0f
       -60 -11 6 63 -73 27 72 -119 2 -29 -31 98 0 -37 92 15
000010 bb 52 d4 81 65 30 cf 27 19 f8 03 1a 8d a4 d6 ed
       -69 82 -44 -127 101 48 -49 39 25 -8 3 26 -115 -92 -42 -19
000020 d1 ce f7 f9 ce 6d f8 38 10 46 33 f2 14 a9 32 81
       -47 -50 -9 -7 -50 109 -8 56 16 70 51 -14 20 -87 50 -127
000030 99 4a 12 92 e0 e8 06 c3 6a 12 c4 43 36 5f 31 ce
       -103 74 18 -110 -32 -24 6 -61 106 18 -60 67 54 95 49 -50
000040 3a 4f 37 31 32 a1 27 3c 87 a3 e6 d3 a1 03 50 d1
       58 79 55 49 50 -95 39 60 -121 -93 -26 -45 -95 3 80 -47
000050 7f 26 ee c9 dd 16 a7 34 2e 9c 1f 2f e8 47 06 2f
       127 38 -18 -55 -35 22 -89 52 46 -100 31 47 -24 71 6 47
000060 03 5a c3 3d e5 3d a4 cc 26 81 b4 de 96 cf 0f 21
       3 90 -61 61 -27 61 -92 -52 38 -127 -76 -34 -106 -49 15 33
000070 4d 05 3b 59 04 c1 e9 38 11 a1 1e b5 0b 31 25 a3
       77 5 59 89 4 -63 -23 56 17 -95 30 -75 11 49 37 -93
000080 47 02 20 cc 27 b9 85 6b c7 32 68 e9 c8 39 d0 5d
       71 2 32 -52 39 -71 -123 107 -57 50 104 -23 -56 57 -48 93
000090 79 ce 57 f8 b6 d5 81 2b 4f 94 8b 4d e0 a4 ed ed
       121 -50 87 -8 -74 -43 -127 43 79 -108 -117 77 -32 -92 -19 -19
0000a0 d7 bc ce 0b 31 a1 bb 14 ec 55 17 6f 6f c8 5c 03
       -41 -68 -50 11 49 -95 -69 20 -20 85 23 111 111 -56 92 3
0000b0 81 c7 6a 0a f8 a6 ed bd 59 32 35 41 b2 d8 43 d5
       -127 -57 106 10 -8 -90 -19 -67 89 50 53 65 -78 -40 67 -43
0000c0 f2 fe ff f9 a4 2d 81 d2 c6 4a 3a fc 61 c5 d2 09
       -14 -2 -1 -7 -92 45 -127 -46 -58 74 58 -4 97 -59 -46 9
0000d0 40 66 bf 9f 04 2a ea e6 90 f5 68 21 a1 dc d2 c3
       64 102 -65 -97 4 42 -22 -26 -112 -11 104 33 -95 -36 -46 -61
0000e0 54 59 4e 3c b3 e7 1d 60 4e 68 dd af 99 fa 0a 5e
       84 89 78 60 -77 -25 29 96 78 104 -35 -81 -103 -6 10 94
0000f0 b7 0b 0e ad 98 f6 f1 32 e7 63 7b f2 09 7f 61 bc
       -73 11 14 -83 -104 -10 -15 50 -25 99 123 -14 9 127 97 -68

model/batch_normalization_23/FusedBatchNormV3;model/depthwise_conv2d_7/depthwise;model/depthwise_conv2d_7/BiasAdd/ReadVariableOp;model/depthwise_conv2d_7/BiasAdd i1 [1, 5, 5, 64]
000000 15 19 5f e3 12 db 54 25 dd 32 03 8d 81 c1 34 f5
       21 25 95 -29 18 -37 84 37 -35 50 3 -115 -127 -63 52 -11
000010 73 f9 35 f3 70 4d c2 c4 e5 a3 0d d3 fc 5a 12 13
       115 -7 53 -13 112 77 -62 -60 -27 -93 13 -45 -4 90 18 19
000020 06 d3 ef d5 e1 f5 22 db 7e 50 90 ff 1e ad 81 54
       6 -45 -17 -43 -31 -11 34 -37 126 80 -112 -1 30 -83 -127 84
000030 fd cf c2 5b 7f 3f 32 ce ff da 08 d9 c0 fc 36 14
       -3 -49 -62 91 127 63 50 -50 -1 -38 8 -39 -64 -4 54 20
000040 d5 7f 08 ea fa ed 6a 13 81 18 f0 95 b7 4c 23 14
       -43 127 8 -22 -6 -19 106 19 -127 24 -16 -107 -73 76 35 20
000050 2e 56 71 d6 50 3a 03 3d f5 81 18 fd 4b 63 22 28
       46 86 113 -42 80 58 3 61 -11 -127 24 -3 75 99 34 40
000060 1f f5 72 37 a3 3f 29 34 74 2a cd fd a3 a1 e0 52
       31 -11 114 55 -93 63 41 52 116 42 -51 -3 -93 -95 -32 82
000070 b8 1c e8 fe 7d ff 01 81 5a ff af d4 ba 22 09 07
       -72 28 -24 -2 125 -1 1 -127 90 -1 -81 -44 -70 34 9 7
000080 a3 03 70 c5 a2 16 27 6f 8b 52 08 e4 b1 ec 30 54
       -93 3 112 -59 -94 22 39 111 -117 82 8 -28 -79 -20 48 84
000090 35 1d 26 99 60 de cb 3b bc 93 1b 66 fa 57 f5 04
       53 29 38 -103 96 -34 -53 59 -68 -109 27 102 -6 87 -11 4
0000a0 f4 13 3d 33 e5 42 6b 24 7f ca d0 c1 1e db c6 40
       -12 19 61 51 -27 66 107 36 127 -54 -48 -63 30 -37 -58 64
0000b0 cf de 0c 1e 20 1e 2f 0c 38 04 88 f7 b5 2d 35 f0
       -49 -34 12 30 32 30 47 12 56 4 -120 -9 -75 45 53 -16
0000c0 fd 2b 27 dc e9 0f 28 79 a2 12 e1 33 97 69 36 a8
       -3 43 39 -36 -23 15 40 121 -94 18 -31 51 -105 105 54 -88
0000d0 3b 1b 25 cf 2f 52 d0 3f dd 89 f8 f2 f5 4b f0 5e
       59 27 37 -49 47 82 -48 63 -35 -119 -8 -14 -11 75 -16 94
0000e0 f2 18 e3 14 a6 79 7f 1a 06 d4 f4 b7 cd 86 07 2c
       -14 24 -29 20 -90 121 127 26 6 -44 -12 -73 -51 -122 7 44
0000f0 db f4 17 15 37 81 4f e9 ef e0 e9 c9 b2 40 2e 3c
       -37 -12 23 21 55 -127 79 -23 -17 -32 -23 -55 -78 64 46 60

model/conv2d_16/Conv2D i1 [128, 1, 1, 64]
000000 47 9e c8 f9 b5 f7 39 e3 b8 de e9 b5 be 04 2e fc
       71 -98 -56 -7 -75 -9 57 -29 -72 -34 -23 -75 -66 4 46 -4
000010 e2 b1 4e 4a 7e 1c c6 f6 0d 1a 65 ce 18 47 e9 32
       -30 -79 78 74 126 28 -58 -10 13 26 101 -50 24 71 -23 50
000020 e8 2b f6 ac b9 fa 19 fd 28 2e 28 36 e4 f6 50 39
       -24 43 -10 -84 -71 -6 25 -3 40 46 40 54 -28 -10 80 57
000030 5d 35 58 a7 88 27 ce d3 44 72 b7 27 f9 f4 54 7f
       93 53 88 -89 -120 39 -50 -45 68 114 -73 39 -7 -12 84 127
000040 ff d1 9d 13 f1 ee d8 38 fa 4c e6 fe 10 f4 af fe
       -1 -47 -99 19 -15 -18 -40 56 -6 76 -26 -2 16 -12 -81 -2
000050 53 3b d8 34 f7 13 d2 d1 2d 41 d3 81 96 e7 b2 25
       83 59 -40 52 -9 19 -46 -47 45 65 -45 -127 -106 -25 -78 37
000060 c3 c5 dc 08 3d 5a b9 82 a0 08 1c 6a c7 2d f0 a9
       -61 -59 -36 8 61 90 -71 -126 -96 8 28 106 -57 45 -16 -87
000070 02 46 f6 05 67 a8 18 e9 8c b1 47 4d 91 ce 5c ac
       2 70 -10 5 103 -88 24 -23 -116 -79 71 77 -111 -50 92 -84
000080 dd de cc ba 6a 28 ff 91 f4 c4 f8 ff e2 fb fa 20
       -35 -34 -52 -70 106 40 -1 -111 -12 -60 -8 -1 -30 -5 -6 32
000090 23 d2 37 4b 2b 24 2a 0c 4c 5e d5 14 13 ca 26 fb
       35 -46 55 75 43 36 42 12 76 94 -43 20 19 -54 38 -5
0000a0 09 51 f3 ae 9e b9 ce f4 e6 0f 52 42 63 c7 f1 a6
       9 81 -13 -82 -98 -71 -50 -12 -26 15 82 66 99 -57 -15 -90
0000b0 12 36 7f 69 19 07 ec 6a f9 ca d1 c7 ea c0 3d c5
       18 54 127 105 25 7 -20 106 -7 -54 -47 -57 -22 -64 61 -59
0000c0 72 c9 ff bc 98 70 cc 27 ee dc 46 41 1b 28 d5 16
       114 -55 -1 -68 -104 112 -52 39 -18 -36 70 65 27 40 -43 22
0000d0 3f 8f ea dc 15 f9 d6 c3 46 ac d8 7b f1 cd e8 0c
       63 -113 -22 -36 21 -7 -42 -61 70 -84 -40 123 -15 -51 -24 12
0000e0 67 de f2 32 ba 27 4f 65 16 e1 18 f5 d5 17 f6 62
       103 -34 -14 50 -70 39 79 101 22 -31 24 -11 -43 23 -10 98
0000f0 e6 14 01 e9 ca d8 c7 fd 37 bc 7f 1c e4 b4 15 19
       -26 20 1 -23 -54 -40 -57 -3 55 -68 127 28 -28 -76 21 25

model/conv2d_17/Conv2D i1 [18, 1, 1, 128]
000000 af 22 21 cf 55 29 2e b2 68 89 dc f2 fd 27 d7 f0
       -81 34 33 -49 85 41 46 -78 104 -119 -36 -14 -3 39 -41 -16
000010 44 af b0 ae 29 44 44 e2 ba 71 33 8d d0 7f 51 8f
       68 -81 -80 -82 41 68 68 -30 -70 113 51 -115 -48 127 81 -113
000020 23 0f e9 fb d9 ba b4 1c 0e 61 64 38 d9 af 6d 28
       35 15 -23 -5 -39 -70 -76 28 14 97 100 56 -39 -81 109 40
000030 1e d3 47 35 88 23 f9 15 60 12 bc ce 6a 55 2a 73
       30 -45 71 53 -120 35 -7 21 96 18 -68 -50 106 85 42 115
000040 c9 43 5c 8e a5 1e ea 7e 13 ff 33 42 a1 8e eb 53
       -55 67 92 -114 -91 30 -22 126 19 -1 51 66 -95 -114 -21 83
000050 d4 39 e3 f3 ec 4e 15 3e 8a 4a cd 2d 78 3c 6c 27
       -44 57 -29 -13 -20 78 21 62 -118 74 -51 45 120 60 108 39
000060 1f f7 04 5d 0d cf a2 1a 87 83 54 81 29 51 86 49
       31 -9 4 93 13 -49 -94 26 -121 -125 84 -127 41 81 -122 73
000070 ef e4 73 3e 33 16 33 cc cc 9f 6a b9 70 49 ac 4f
       -17 -28 115 62 51 22 51 -52 -52 -97 106 -71 112 73 -84 79
000080 eb aa c8 56 35 38 c8 d6 6e 84 39 5a 47 d9 de 5c
       -21 -86 -56 86 53 56 -56 -42 110 -124 57 90 71 -39 -34 92
000090 37 75 fd e6 40 de 1e a3 b2 7f 8b 42 af fc 22 40
       55 117 -3 -26 64 -34 30 -93 -78 127 -117 66 -81 -4 34 64
0000a0 8f 1b 72 7d 84 47 d5 b2 a3 b4 0c 5d 09 2e be 59
       -113 27 114 125 -124 71 -43 -78 -93 -76 12 93 9 46 -66 89
0000b0 6b 14 00 7a 3f 3f c5 11 d5 a6 76 de d7 18 73 8c
       107 20 0 122 63 63 -59 17 -43 -90 118 -34 -41 24 115 -116
0000c0 22 11 13 3b d4 58 87 3f d6 69 c2 a0 48 f1 ff 0b
       34 17 19 59 -44 88 -121 63 -42 105 -62 -96 72 -15 -1 11
0000d0 68 3b d1 6b 69 64 4f 65 31 a9 69 0d 57 d9 84 03
       104 59 -47 107 105 100 79 101 49 -87 105 13 87 -39 -124 3
0000e0 14 b5 99 58 d1 81 99 e7 68 1a d5 b8 8d f6 d6 5c
       20 -75 -103 88 -47 -127 -103 -25 104 26 -43 -72 -115 -10 -42 92
0000f0 5f e5 c4 e7 03 ec df 94 41 5a 67 89 11 2f 63 50
       95 -27 -60 -25 3 -20 -33 -108 65 90 103 -119 17 47 99 80

anchors f4 [3, 6]
000000 00 00 00 cf 00 00 00 cf 00 00 80 40 00 00 60 41
       -2.1474836e+09 -2.1474836e+09 4.0 14.0
000010 00 00 30 41 00 00 18 42 00 00 00 00 00 00 00 00
       11.0 38.0 0.0 0.0
000020 00 00 00 00 00 00 00 00 00 00 00 00 00 00 00 00
       0.0 0.0 0.0 0.0
000030 00 00 00 00 00 00 00 00 00 00 00 00 00 00 00 00
       0.0 0.0 0.0 0.0
000040 00 00 00 00 00 00 00 00
       0.0 0.0
